…
--------start to validate-----------
	speed: 0.0520s/iter; elapsed time: 1.1430s
--------start to test-----------
	speed: 0.0501s/iter; elapsed time: 1.0518s
Epoch: 37, Steps: 64 | Train Loss: 0.2309196 valid Loss: 0.1293330 Test Loss: 0.0913697
EarlyStopping counter: 7 out of 7
Early stopping
save model in  exp/SCI/SCI96.bin
SCINet(
  (blocks1): EncoderTree(
    (SCINet_Tree): SCINet_Tree(
      (workingblock): LevelSCINet(
        (interact): InteractorLevel(
          (level): Interactor(
            (split): Splitting()
            (phi): Sequential(
              (0): ReplicationPad1d((3, 3))
              (1): Conv1d(1, 1, kernel_size=(5,), stride=(1,))
              (2): LeakyReLU(negative_slope=0.01, inplace=True)
              (3): Dropout(p=0.5, inplace=False)
              (4): Conv1d(1, 1, kernel_size=(3,), stride=(1,))
              (5): Tanh()
            )
            (psi): Sequential(
              (0): ReplicationPad1d((3, 3))
              (1): Conv1d(1, 1, kernel_size=(5,), stride=(1,))
              (2): LeakyReLU(negative_slope=0.01, inplace=True)
              (3): Dropout(p=0.5, inplace=False)
              (4): Conv1d(1, 1, kernel_size=(3,), stride=(1,))
              (5): Tanh()
            )
            (P): Sequential(
              (0): ReplicationPad1d((3, 3))
              (1): Conv1d(1, 1, kernel_size=(5,), stride=(1,))
              (2): LeakyReLU(negative_slope=0.01, inplace=True)
              (3): Dropout(p=0.5, inplace=False)
              (4): Conv1d(1, 1, kernel_size=(3,), stride=(1,))
              (5): Tanh()
            )
            (U): Sequential(
              (0): ReplicationPad1d((3, 3))
              (1): Conv1d(1, 1, kernel_size=(5,), stride=(1,))
              (2): LeakyReLU(negative_slope=0.01, inplace=True)
              (3): Dropout(p=0.5, inplace=False)
              (4): Conv1d(1, 1, kernel_size=(3,), stride=(1,))
              (5): Tanh()
            )
          )
        )
      )
      (SCINet_Tree_odd): SCINet_Tree(
        (workingblock): LevelSCINet(
          (interact): InteractorLevel(
            (level): Interactor(
              (split): Splitting()
              (phi): Sequential(
                (0): ReplicationPad1d((3, 3))
                (1): Conv1d(1, 1, kernel_size=(5,), stride=(1,))
                (2): LeakyReLU(negative_slope=0.01, inplace=True)
                (3): Dropout(p=0.5, inplace=False)
                (4): Conv1d(1, 1, kernel_size=(3,), stride=(1,))
                (5): Tanh()
              )
              (psi): Sequential(
                (0): ReplicationPad1d((3, 3))
                (1): Conv1d(1, 1, kernel_size=(5,), stride=(1,))
                (2): LeakyReLU(negative_slope=0.01, inplace=True)
                (3): Dropout(p=0.5, inplace=False)
                (4): Conv1d(1, 1, kernel_size=(3,), stride=(1,))
                (5): Tanh()
              )
              (P): Sequential(
                (0): ReplicationPad1d((3, 3))
                (1): Conv1d(1, 1, kernel_size=(5,), stride=(1,))
                (2): LeakyReLU(negative_slope=0.01, inplace=True)
                (3): Dropout(p=0.5, inplace=False)
                (4): Conv1d(1, 1, kernel_size=(3,), stride=(1,))
                (5): Tanh()
              )
              (U): Sequential(
                (0): ReplicationPad1d((3, 3))
                (1): Conv1d(1, 1, kernel_size=(5,), stride=(1,))
                (2): LeakyReLU(negative_slope=0.01, inplace=True)
                (3): Dropout(p=0.5, inplace=False)
                (4): Conv1d(1, 1, kernel_size=(3,), stride=(1,))
                (5): Tanh()
              )
            )
          )
        )
        (SCINet_Tree_odd): SCINet_Tree(
          (workingblock): LevelSCINet(
            (interact): InteractorLevel(
              (level): Interactor(
                (split): Splitting()
                (phi): Sequential(
                  (0): ReplicationPad1d((3, 3))
                  (1): Conv1d(1, 1, kernel_size=(5,), stride=(1,))
                  (2): LeakyReLU(negative_slope=0.01, inplace=True)
                  (3): Dropout(p=0.5, inplace=False)
                  (4): Conv1d(1, 1, kernel_size=(3,), stride=(1,))
                  (5): Tanh()
                )
                (psi): Sequential(
                  (0): ReplicationPad1d((3, 3))
                  (1): Conv1d(1, 1, kernel_size=(5,), stride=(1,))
                  (2): LeakyReLU(negative_slope=0.01, inplace=True)
                  (3): Dropout(p=0.5, inplace=False)
                  (4): Conv1d(1, 1, kernel_size=(3,), stride=(1,))
                  (5): Tanh()
                )
                (P): Sequential(
                  (0): ReplicationPad1d((3, 3))
                  (1): Conv1d(1, 1, kernel_size=(5,), stride=(1,))
                  (2): LeakyReLU(negative_slope=0.01, inplace=True)
                  (3): Dropout(p=0.5, inplace=False)
                  (4): Conv1d(1, 1, kernel_size=(3,), stride=(1,))
                  (5): Tanh()
                )
                (U): Sequential(
                  (0): ReplicationPad1d((3, 3))
                  (1): Conv1d(1, 1, kernel_size=(5,), stride=(1,))
                  (2): LeakyReLU(negative_slope=0.01, inplace=True)
                  (3): Dropout(p=0.5, inplace=False)
                  (4): Conv1d(1, 1, kernel_size=(3,), stride=(1,))
                  (5): Tanh()
                )
              )
            )
          )
        )
        (SCINet_Tree_even): SCINet_Tree(
          (workingblock): LevelSCINet(
            (interact): InteractorLevel(
              (level): Interactor(
                (split): Splitting()
                (phi): Sequential(
                  (0): ReplicationPad1d((3, 3))
                  (1): Conv1d(1, 1, kernel_size=(5,), stride=(1,))
                  (2): LeakyReLU(negative_slope=0.01, inplace=True)
                  (3): Dropout(p=0.5, inplace=False)
                  (4): Conv1d(1, 1, kernel_size=(3,), stride=(1,))
                  (5): Tanh()
                )
                (psi): Sequential(
                  (0): ReplicationPad1d((3, 3))
                  (1): Conv1d(1, 1, kernel_size=(5,), stride=(1,))
                  (2): LeakyReLU(negative_slope=0.01, inplace=True)
                  (3): Dropout(p=0.5, inplace=False)
                  (4): Conv1d(1, 1, kernel_size=(3,), stride=(1,))
                  (5): Tanh()
                )
                (P): Sequential(
                  (0): ReplicationPad1d((3, 3))
                  (1): Conv1d(1, 1, kernel_size=(5,), stride=(1,))
                  (2): LeakyReLU(negative_slope=0.01, inplace=True)
                  (3): Dropout(p=0.5, inplace=False)
                  (4): Conv1d(1, 1, kernel_size=(3,), stride=(1,))
                  (5): Tanh()
                )
                (U): Sequential(
                  (0): ReplicationPad1d((3, 3))
                  (1): Conv1d(1, 1, kernel_size=(5,), stride=(1,))
                  (2): LeakyReLU(negative_slope=0.01, inplace=True)
                  (3): Dropout(p=0.5, inplace=False)
                  (4): Conv1d(1, 1, kernel_size=(3,), stride=(1,))
                  (5): Tanh()
                )
              )
            )
          )
        )
      )
      (SCINet_Tree_even): SCINet_Tree(
        (workingblock): LevelSCINet(
          (interact): InteractorLevel(
            (level): Interactor(
              (split): Splitting()
              (phi): Sequential(
                (0): ReplicationPad1d((3, 3))
                (1): Conv1d(1, 1, kernel_size=(5,), stride=(1,))
                (2): LeakyReLU(negative_slope=0.01, inplace=True)
                (3): Dropout(p=0.5, inplace=False)
                (4): Conv1d(1, 1, kernel_size=(3,), stride=(1,))
                (5): Tanh()
              )
              (psi): Sequential(
                (0): ReplicationPad1d((3, 3))
                (1): Conv1d(1, 1, kernel_size=(5,), stride=(1,))
                (2): LeakyReLU(negative_slope=0.01, inplace=True)
                (3): Dropout(p=0.5, inplace=False)
                (4): Conv1d(1, 1, kernel_size=(3,), stride=(1,))
                (5): Tanh()
              )
              (P): Sequential(
                (0): ReplicationPad1d((3, 3))
                (1): Conv1d(1, 1, kernel_size=(5,), stride=(1,))
                (2): LeakyReLU(negative_slope=0.01, inplace=True)
                (3): Dropout(p=0.5, inplace=False)
                (4): Conv1d(1, 1, kernel_size=(3,), stride=(1,))
                (5): Tanh()
              )
              (U): Sequential(
                (0): ReplicationPad1d((3, 3))
                (1): Conv1d(1, 1, kernel_size=(5,), stride=(1,))
                (2): LeakyReLU(negative_slope=0.01, inplace=True)
                (3): Dropout(p=0.5, inplace=False)
                (4): Conv1d(1, 1, kernel_size=(3,), stride=(1,))
                (5): Tanh()
              )
            )
          )
        )
        (SCINet_Tree_odd): SCINet_Tree(
          (workingblock): LevelSCINet(
            (interact): InteractorLevel(
              (level): Interactor(
                (split): Splitting()
                (phi): Sequential(
                  (0): ReplicationPad1d((3, 3))
                  (1): Conv1d(1, 1, kernel_size=(5,), stride=(1,))
                  (2): LeakyReLU(negative_slope=0.01, inplace=True)
                  (3): Dropout(p=0.5, inplace=False)
                  (4): Conv1d(1, 1, kernel_size=(3,), stride=(1,))
                  (5): Tanh()
                )
                (psi): Sequential(
                  (0): ReplicationPad1d((3, 3))
                  (1): Conv1d(1, 1, kernel_size=(5,), stride=(1,))
                  (2): LeakyReLU(negative_slope=0.01, inplace=True)
                  (3): Dropout(p=0.5, inplace=False)
                  (4): Conv1d(1, 1, kernel_size=(3,), stride=(1,))
                  (5): Tanh()
                )
                (P): Sequential(
                  (0): ReplicationPad1d((3, 3))
                  (1): Conv1d(1, 1, kernel_size=(5,), stride=(1,))
                  (2): LeakyReLU(negative_slope=0.01, inplace=True)
                  (3): Dropout(p=0.5, inplace=False)
                  (4): Conv1d(1, 1, kernel_size=(3,), stride=(1,))
                  (5): Tanh()
                )
                (U): Sequential(
                  (0): ReplicationPad1d((3, 3))
                  (1): Conv1d(1, 1, kernel_size=(5,), stride=(1,))
                  (2): LeakyReLU(negative_slope=0.01, inplace=True)
                  (3): Dropout(p=0.5, inplace=False)
                  (4): Conv1d(1, 1, kernel_size=(3,), stride=(1,))
                  (5): Tanh()
                )
              )
            )
          )
        )
        (SCINet_Tree_even): SCINet_Tree(
          (workingblock): LevelSCINet(
            (interact): InteractorLevel(
              (level): Interactor(
                (split): Splitting()
                (phi): Sequential(
                  (0): ReplicationPad1d((3, 3))
                  (1): Conv1d(1, 1, kernel_size=(5,), stride=(1,))
                  (2): LeakyReLU(negative_slope=0.01, inplace=True)
                  (3): Dropout(p=0.5, inplace=False)
                  (4): Conv1d(1, 1, kernel_size=(3,), stride=(1,))
                  (5): Tanh()
                )
                (psi): Sequential(
                  (0): ReplicationPad1d((3, 3))
                  (1): Conv1d(1, 1, kernel_size=(5,), stride=(1,))
                  (2): LeakyReLU(negative_slope=0.01, inplace=True)
                  (3): Dropout(p=0.5, inplace=False)
                  (4): Conv1d(1, 1, kernel_size=(3,), stride=(1,))
                  (5): Tanh()
                )
                (P): Sequential(
                  (0): ReplicationPad1d((3, 3))
                  (1): Conv1d(1, 1, kernel_size=(5,), stride=(1,))
                  (2): LeakyReLU(negative_slope=0.01, inplace=True)
                  (3): Dropout(p=0.5, inplace=False)
                  (4): Conv1d(1, 1, kernel_size=(3,), stride=(1,))
                  (5): Tanh()
                )
                (U): Sequential(
                  (0): ReplicationPad1d((3, 3))
                  (1): Conv1d(1, 1, kernel_size=(5,), stride=(1,))
                  (2): LeakyReLU(negative_slope=0.01, inplace=True)
                  (3): Dropout(p=0.5, inplace=False)
                  (4): Conv1d(1, 1, kernel_size=(3,), stride=(1,))
                  (5): Tanh()
                )
              )
            )
          )
        )
      )
    )
  )
  (projection1): Conv1d(384, 96, kernel_size=(1,), stride=(1,), bias=False)
  (div_projection): ModuleList()
)
